chatbot-deployment-main/data.pth (torch, 5482 bytes, 6 tensors)

l1.weight f4 [8, 55]
0	0x3d398561	0.045293216
1	0x3f2f0c17	0.6837782
2	0x3e6e5294	0.23273689
3	0x3e4458a7	0.19174443
4	0xbdbfecdb	-0.093713485
5	0x3f28a846	0.65881765
6	0xbdbbe7ac	-0.09175047
7	0x3e6651f3	0.22492199
8	0x3f20d349	0.62822396
9	0x3e6d88f4	0.23196775
10	0x3f0a930a	0.54130614
11	0x3eb7bd56	0.3588664
12	0x3ed71c8b	0.42013964
13	0x3ee4f409	0.44717434
14	0x3eb64c59	0.35605124
15	0xbdb54e38	-0.0885281
16	0x3edd570e	0.4323048
17	0x3e7c38f0	0.24631095
18	0x3ef11192	0.47083718
19	0x3ebd1bbe	0.36935228
20	0x3ec75563	0.38932332
21	0x3e88ecd0	0.26743174
22	0x3ed3c293	0.41359386
23	0x3f402fc8	0.7507291
24	0xbec72db6	-0.38902062
25	0xbf25f902	-0.6483308
26	0x3ecf1a30	0.40449667
27	0x3da12f8b	0.07870396
28	0x3db3d3b3	0.08780613
29	0x3f1a8f0e	0.60374534
30	0x3f055194	0.52077603
31	0x3f22d5aa	0.63607275
32	0xbb11489b	-0.002216852
33	0x3ee54c41	0.4478474
34	0xbc3dcf38	-0.011585049
35	0x3f3dd2e3	0.7414991
36	0xbdaf2959	-0.08552808
37	0xbec87903	-0.39154825
38	0x3c6db600	0.014508724
39	0xbe1fa24b	-0.15589254
40	0x3de1134f	0.10990011
41	0xbed9f593	-0.4257017
42	0x3eb957f2	0.3619991
43	0x3f38e0be	0.7221793
44	0xbe5b8e83	-0.21441083
45	0xbe60e2d6	-0.21961531
46	0x3e950a6e	0.2910952
47	0xbd110a8d	-0.035410453
48	0x3e0a39b2	0.13498572
49	0x3ef96272	0.4870792
50	0x3ee30693	0.44340953
51	0x3f1c318a	0.6101309
52	0xbd9cc5e0	-0.07654929
53	0xbc7c8640	-0.015412867
54	0x3e51d11a	0.20489922
55	0xbd8be8ad	-0.06831489
56	0xbe282a6e	-0.16422436
57	0x3eacabee	0.33724922
58	0x3f0cbe08	0.54977465
59	0xbe35efed	-0.17767306
60	0xbcd784b8	-0.026308402
61	0xbee252bf	-0.44203755
62	0xba9e0ce3	-0.0012058284
63	0xbdf101fe	-0.11767958
64	0x3eedd079	0.46448115
65	0xbdc0b792	-0.09410013
66	0x3de43ef0	0.11144817
67	0x3e77217b	0.24133866
68	0x3d127585	0.035756607
69	0x3ef41b1b	0.4767693
70	0xbee24d0b	-0.44199404
71	0x3ee56c81	0.44809344
72	0xbe91fbb5	-0.2851235
73	0x3eddacbe	0.43295854
74	0x3f26c73c	0.6514776
75	0x3c6c5a21	0.014425785
76	0x3f003306	0.50077856
77	0xbc4657e7	-0.0121059185
78	0x3e0d4db2	0.1379917
79	0x3e14b0e9	0.14520611
80	0xbecf03e9	-0.4043267
81	0x3c80b276	0.015710097
82	0xbe80db10	-0.2516713
83	0x3d880626	0.06641798
84	0xbd0dbff8	-0.034606904
85	0xbd87b843	-0.06626942
86	0xbd9c7f7c	-0.07641503
87	0x3e337c64	0.1752792
88	0x3d246914	0.040139273
89	0x3d2c1011	0.04200751
90	0x3cc5a4f0	0.0241265
91	0xbceaed64	-0.02867765
92	0x3e7e77c7	0.24850379
93	0xbcf2a120	-0.029617846
94	0x3edf004c	0.43554914
95	0xbe6a3f73	-0.22875766
96	0xbdcbbaa6	-0.0994771
97	0x3de50714	0.11182991
98	0x3d941468	0.07230455
99	0xbee7b10a	-0.45252258
100	0xbdb5a4fd	-0.0886936
101	0x3ee83204	0.4535066
102	0x3d33c6ca	0.043890752
103	0x3e25a25f	0.16175221
104	0x3e759d37	0.23985754
105	0xbe599bb0	-0.21250796
106	0x3e58a6bd	0.21157356
107	0xbcb34464	-0.021883197
108	0xbcd5cd03	-0.026098734
109	0x3d24bf4e	0.040221505
110	0xbe6ba585	-0.2301236
111	0xbea81058	-0.3282497
112	0x3ea6e1d8	0.3259418
113	0x3e5bda78	0.21470058
114	0x3f02dfe2	0.5112287
115	0xbea2f0cf	-0.31824347
116	0x3e83b53f	0.25724217
117	0xbd73d8ff	-0.059533115
118	0x3d1a8b88	0.037730724
119	0x3eb5b2eb	0.35488066
120	0xbe850178	-0.25977683
121	0x3b849f7f	0.0040473337
122	0x3d666f45	0.05625846
123	0xbea076d1	-0.3134065
124	0x3e6b6564	0.22987896
125	0x3e63dfad	0.22253294
126	0x3ea5aa72	0.32356602
127	0xbe0efc86	-0.13963518
128	0x3ea05740	0.31316566
129	0x3e5b0720	0.21389437
130	0xbe441f73	-0.19152622
131	0x3e64f07e	0.22357365
132	0x3e2b2b2d	0.16715689
133	0xbe9aa150	-0.30201197
134	0x3e9a1a6a	0.30098277
135	0x3f80e579	1.007003
136	0xbeac9f53	-0.33715305
137	0x3eba8fce	0.3643784
138	0xbd22fcb6	-0.039791785
139	0xbe1e6fa5	-0.15472277
140	0xbedeec02	-0.43539435
141	0xbeab9f26	-0.33519858
142	0x3eb4bb46	0.35299128
143	0x3c945420	0.01810652
144	0x3e921f63	0.2853957
145	0xbe874d19	-0.26426008
146	0x3f0bd292	0.5461818
147	0x3f04f94f	0.51942915
148	0x3ef174a2	0.47159296
149	0x3f04bab9	0.51847416
150	0x3e54240b	0.20716874
151	0x3f266605	0.6499942
152	0xbe1747df	-0.1477351
153	0xbedd7eb9	-0.43260744
154	0xbf2ba0cc	-0.6704223
155	0xbe99df18	-0.3005302
156	0x3e933b48	0.28756166
157	0x3f4c9ba3	0.7992498
158	0x3f1317ac	0.57457995
159	0xbee48638	-0.4463365
160	0xbe9a73ad	-0.3016638
161	0xbe89b9b3	-0.2689949
162	0x3ebd75d4	0.37003958
163	0x3e1eb4a9	0.15498604
164	0x3d1be14c	0.038056657
165	0xbec45f81	-0.38354114
166	0x3eb6def1	0.35716966
167	0x3e88d764	0.2672683
168	0x3efe13e3	0.49624547
169	0xbe089ed1	-0.13341834
170	0x3f0c69cc	0.54848933
171	0x3e23e355	0.16004689
172	0xbe2c6765	-0.16836317
173	0x3e8cacaf	0.27475497
174	0x3ea2a701	0.3176804
175	0x3e3f2e23	0.18669944
176	0xbf37c08f	-0.71778196
177	0xbe0388ce	-0.12845156
178	0xbe42b214	-0.19013244
179	0x3eb6bbe3	0.3569022
180	0x3e1f5889	0.15561117
181	0x3eb586a8	0.35454297
182	0x3e0bff58	0.13671625
183	0x3f09dcd6	0.53852594
184	0x3ef44953	0.47712192
185	0xbe313e6a	-0.17308965
186	0x3e849049	0.2589133
187	0x3e8ee93e	0.27912325
188	0x3eecc2c3	0.4624234
189	0xbee12ed2	-0.43981034
190	0xbeb26a94	-0.34846938
191	0x3e69ee2f	0.22844766
192	0x3dea5c3e	0.11443375
193	0xbda22ec2	-0.079190746
194	0x3e377ea3	0.17919402
195	0x3f0fd1b0	0.5617933
196	0x3eab1b8b	0.3341945
197	0xbecb1da1	-0.39671043
198	0x3e95807e	0.29199594
199	0xbe27fde0	-0.1640544
200	0xbdbc4308	-0.09192473
201	0xbe89220e	-0.26783794
202	0xbeb3cb94	-0.35116255
203	0xbe1021e6	-0.14075431
204	0xbee553fb	-0.44790635
205	0x3e1e1da3	0.15440993
206	0x3de4fff7	0.11181634
207	0xbe4e45e2	-0.20143846
208	0x3eb4dd8d	0.3532528
209	0xbf478dfc	-0.77951026
210	0xbf02c2ed	-0.51078683
211	0x3eb01fcb	0.34399256
212	0xbed188d1	-0.40924695
213	0x3d56cf96	0.052444063
214	0x3da78ef2	0.081815615
215	0xbea2183d	-0.31659117
216	0x3e9aa90b	0.30207095
217	0xbe8737e8	-0.2640984
218	0xbea56077	-0.3230016
219	0x3d6fe7b9	0.058570597
220	0x3f2c1da4	0.6723273
221	0x3f3a93e5	0.7288192
222	0xbe9456c1	-0.28972438
223	0xbf06d95f	-0.5267543
224	0x3ec00b76	0.37508744
225	0x3ed4a3cd	0.4153122
226	0x3f83c412	1.0294211
227	0x3f0c1e79	0.54734
228	0x3e5b79db	0.21433203
229	0xbe93631c	-0.28786552
230	0x3edb3d4d	0.42820206
231	0x3d82903d	0.063751675
232	0x3ea5816b	0.323253
233	0xbd1c4678	-0.03815314
234	0xbeb901f0	-0.3613429
235	0x3f8b5345	1.0884787
236	0xbf4145ef	-0.75497335
237	0x3f0f337c	0.55937934
238	0xbf17079c	-0.58995986
239	0xbef9aa7f	-0.4876289
240	0x3deaa2a3	0.11456802
241	0x3e3c8a67	0.18412171
242	0x3f12db36	0.5736574
243	0x3eb60579	0.3555105
244	0x3eeef431	0.46670678
245	0x3f1b903f	0.6076698
246	0xbe7b4d16	-0.24541125
247	0x3f48d3ea	0.78448355
248	0x3eb87967	0.36030123
249	0x3ebf6da5	0.3738834
250	0x3f061157	0.5237021
251	0x3e94d831	0.2907119
252	0x3ebdc75b	0.3706616
253	0x3e98b377	0.2982442
254	0x3edce9dd	0.43147174
255	0x3e9ea043	0.30981645

l1.bias f4 [8]
0	0x3f2f0025	0.68359596
1	0x3ee24ed9	0.4420078
2	0x3f2b9f67	0.67040104
3	0x3f41f620	0.7576618
4	0x3f82f432	1.0230772
5	0x3ee9bbcc	0.4565109
6	0x3ef53cfc	0.4789809
7	0x3f2da59b	0.6783082

l2.weight f4 [8, 8]
0	0x3fa4b1d4	1.2866769
1	0x3fa363b2	1.27648
2	0xbecd9e0d	-0.40159646
3	0x3f070671	0.52744204
4	0x3c298ace	0.010348035
5	0x3f259491	0.6467982
6	0x3f88da1b	1.069156
7	0xbf1ad465	-0.6048034
8	0xbf426585	-0.75936157
9	0xbccd747e	-0.025079962
10	0x3f9b6239	1.213935
11	0xbf67b0b7	-0.9050402
12	0x3f7598c8	0.9593625
13	0x3f2c3e3a	0.6728245
14	0x3f4e24f8	0.8052516
15	0x3ee366fa	0.44414502
16	0x3f65f2a0	0.8982334
17	0x3f3c1f94	0.73485684
18	0xbe6c7bd7	-0.23094116
19	0x3f9a8192	1.2070792
20	0xbdd4d510	-0.10392201
21	0x3f49d92f	0.7884702
22	0x3ea1d794	0.31609786
23	0xbeb802b4	-0.35939562
24	0x3f898f2f	1.0746821
25	0xbefe4bf7	-0.49667332
26	0xbf619d6e	-0.88130844
27	0xbf09a8e3	-0.53773326
28	0x3f9139fc	1.134582
29	0x3f32bc1d	0.6981829
30	0xbf50c9d2	-0.81557953
31	0x3f9464de	1.1593282
32	0xbe4f4ac8	-0.2024337
33	0xbec16be2	-0.3777762
34	0x3f583a40	0.8446388
35	0xbcd2ee56	-0.025748413
36	0x3f689500	0.90852356
37	0x3eff48f2	0.4986034
38	0xbec4df0e	-0.38451427
39	0xbf912995	-1.1340815
40	0xbe1a3fb1	-0.15063359
41	0xbea7eff1	-0.32800248
42	0xbe92f805	-0.2870485
43	0x3c1b0ba0	0.009463221
44	0xbdd768a6	-0.10518007
45	0xbe10a89b	-0.14126818
46	0xbe9e49ea	-0.30915767
47	0xbd9166a8	-0.07099658
48	0x3eaf2a5b	0.34212002
49	0x3f865d68	1.0497255
50	0x3fbeed4b	1.4916166
51	0x3f8dbaf0	1.1072674
52	0x3df3244c	0.118721575
53	0xbf076bfd	-0.5289915
54	0x3f83b09a	1.028827
55	0xbf103884	-0.56336236
56	0xbe185b54	-0.14878589
57	0xbf8310b7	-1.0239476
58	0x3e0aa5c3	0.13539796
59	0x3f7ae86e	0.9801091
60	0x3fb6a19a	1.4268067
61	0xbf5093f4	-0.8147576
62	0xbf774969	-0.9659639
63	0x3ea1962e	0.3155989

l2.bias f4 [8]
0	0xbe4f2f77	-0.2023295
1	0x3ed676a7	0.418874
2	0x3edb1afa	0.4279402
3	0x3f0bf5ef	0.5467214
4	0x3eb6ee98	0.35728908
5	0xbe2c055c	-0.1679892
6	0x3f262843	0.64905185
7	0x3f3937fd	0.72351056

l3.weight f4 [7, 8]
0	0x3ee2d8c4	0.44306004
1	0xbfd12bab	-1.6341451
2	0x3e8a7aae	0.27046722
3	0xbdace22d	-0.08441577
4	0x38fed9cf	0.00012152234
5	0xbdb22ac4	-0.08699563
6	0x3c923707	0.017848505
7	0x3eb08a8a	0.34480697
8	0x3ea0ff4f	0.31444785
9	0xbeddce1e	-0.43321317
10	0x3e1df6cb	0.15426175
11	0x3f58604f	0.84521955
12	0xbf5e0caa	-0.86738074
13	0x3e435012	0.19073513
14	0xbf54972f	-0.8304319
15	0xbf98d46e	-1.1939828
16	0xbf8041a5	-1.0020033
17	0xbd7431c7	-0.059617784
18	0x3d99d84b	0.07511958
19	0xbd6668fa	-0.056252457
20	0x3f2badf9	0.67062336
21	0x3e82e3b7	0.25564358
22	0xbcdd508e	-0.02701595
23	0x3f341dc0	0.70357895
24	0x3f014b4e	0.5050553
25	0xbf6ad7dd	-0.9173563
26	0x3f17941c	0.5921037
27	0xbfaccd30	-1.3500118
28	0xbf960e3b	-1.1723093
29	0xbe29f60f	-0.1659777
30	0x3f5f9952	0.87343323
31	0xbeb31572	-0.349773
32	0xbfa0e580	-1.2570038
33	0x3f264fbc	0.64965415
34	0xbfcf5179	-1.6196738
35	0xbfd6d60f	-1.6784075
36	0x3f557226	0.833773
37	0xbe0582e1	-0.13038208
38	0x3f122c5a	0.57098925
39	0x3ea15608	0.3151095
40	0x3eb8434b	0.3598884
41	0x3f27e48b	0.65583104
42	0xbebfeb0e	-0.3748402
43	0xbf3b6580	-0.7320175
44	0x3ec6fb5a	0.3886364
45	0xbe881578	-0.2657888
46	0xbda212fb	-0.079137765
47	0xbf4375be	-0.76351535
48	0xbfa7d060	-1.3110466
49	0x3eb42528	0.35184598
50	0xbfcc24bc	-1.594871
51	0x3f51293f	0.8170356
52	0xbf906936	-1.1282108
53	0xbe22efa7	-0.15911733
54	0xbf8e2474	-1.1104875
55	0x3f22b0cc	0.6355102

l3.bias f4 [7]
0	0xbedf7d86	-0.43650454
1	0x3e97b405	0.29629532
2	0x3db1bf6f	0.08679091
3	0x3ed92765	0.42412868
4	0xbe94eac8	-0.29085374
5	0xbe85f5d9	-0.2616413
6	0x3ecfd720	0.40593815
